…
{'Tomato Early blight leaf': 0, 'Tomato Septoria leaf spot': 1, 'Tomato leaf': 2, 'Tomato leaf bacterial spot': 3, 'Tomato leaf late blight': 4, 'Tomato leaf mosaic virus': 5, 'Tomato leaf yellow virus': 6, 'Tomato mold leaf': 7}
======================================================================================================================================================
Layer (type:depth-idx)                             Input Shape               Output Shape              Param #                   Mult-Adds
======================================================================================================================================================
MobileNetV2                                        [1, 3, 224, 224]          [1, 8]                    --                        --
├─Sequential: 1-1                                  [1, 3, 224, 224]          [1, 1280, 7, 7]           --                        --
│    └─Conv2dNormActivation: 2-1                   [1, 3, 224, 224]          [1, 32, 112, 112]         --                        --
│    │    └─Conv2d: 3-1                            [1, 3, 224, 224]          [1, 32, 112, 112]         864                       10,838,016
│    │    └─BatchNorm2d: 3-2                       [1, 32, 112, 112]         [1, 32, 112, 112]         64                        64
│    │    └─ReLU6: 3-3                             [1, 32, 112, 112]         [1, 32, 112, 112]         --                        --
│    └─InvertedResidual: 2-2                       [1, 32, 112, 112]         [1, 16, 112, 112]         --                        --
│    │    └─Sequential: 3-4                        [1, 32, 112, 112]         [1, 16, 112, 112]         896                       10,035,296
│    └─InvertedResidual: 2-3                       [1, 16, 112, 112]         [1, 24, 56, 56]           --                        --
│    │    └─Sequential: 3-5                        [1, 16, 112, 112]         [1, 24, 56, 56]           5,136                     29,202,864
│    └─InvertedResidual: 2-4                       [1, 24, 56, 56]           [1, 24, 56, 56]           --                        --
│    │    └─Sequential: 3-6                        [1, 24, 56, 56]           [1, 24, 56, 56]           8,832                     25,740,912
│    └─InvertedResidual: 2-5                       [1, 24, 56, 56]           [1, 32, 28, 28]           --                        --
│    │    └─Sequential: 3-7                        [1, 24, 56, 56]           [1, 32, 28, 28]           10,000                    15,467,392
│    └─InvertedResidual: 2-6                       [1, 32, 28, 28]           [1, 32, 28, 28]           --                        --
│    │    └─Sequential: 3-8                        [1, 32, 28, 28]           [1, 32, 28, 28]           14,848                    10,989,376
│    └─InvertedResidual: 2-7                       [1, 32, 28, 28]           [1, 32, 28, 28]           --                        --
│    │    └─Sequential: 3-9                        [1, 32, 28, 28]           [1, 32, 28, 28]           14,848                    10,989,376
│    └─InvertedResidual: 2-8                       [1, 32, 28, 28]           [1, 64, 14, 14]           --                        --
│    │    └─Sequential: 3-10                       [1, 32, 28, 28]           [1, 64, 14, 14]           21,056                    7,564,928
│    └─InvertedResidual: 2-9                       [1, 64, 14, 14]           [1, 64, 14, 14]           --                        --
│    │    └─Sequential: 3-11                       [1, 64, 14, 14]           [1, 64, 14, 14]           54,272                    10,312,832
│    └─InvertedResidual: 2-10                      [1, 64, 14, 14]           [1, 64, 14, 14]           --                        --
│    │    └─Sequential: 3-12                       [1, 64, 14, 14]           [1, 64, 14, 14]           54,272                    10,312,832
│    └─InvertedResidual: 2-11                      [1, 64, 14, 14]           [1, 64, 14, 14]           --                        --
│    │    └─Sequential: 3-13                       [1, 64, 14, 14]           [1, 64, 14, 14]           54,272                    10,312,832
│    └─InvertedResidual: 2-12                      [1, 64, 14, 14]           [1, 96, 14, 14]           --                        --
│    │    └─Sequential: 3-14                       [1, 64, 14, 14]           [1, 96, 14, 14]           66,624                    12,721,344
│    └─InvertedResidual: 2-13                      [1, 96, 14, 14]           [1, 96, 14, 14]           --                        --
│    │    └─Sequential: 3-15                       [1, 96, 14, 14]           [1, 96, 14, 14]           118,272                   22,694,592
│    └─InvertedResidual: 2-14                      [1, 96, 14, 14]           [1, 96, 14, 14]           --                        --
│    │    └─Sequential: 3-16                       [1, 96, 14, 14]           [1, 96, 14, 14]           118,272                   22,694,592
│    └─InvertedResidual: 2-15                      [1, 96, 14, 14]           [1, 160, 7, 7]            --                        --
│    │    └─Sequential: 3-17                       [1, 96, 14, 14]           [1, 160, 7, 7]            155,264                   15,610,496
│    └─InvertedResidual: 2-16                      [1, 160, 7, 7]            [1, 160, 7, 7]            --                        --
│    │    └─Sequential: 3-18                       [1, 160, 7, 7]            [1, 160, 7, 7]            320,000                   15,480,320
│    └─InvertedResidual: 2-17                      [1, 160, 7, 7]            [1, 160, 7, 7]            --                        --
│    │    └─Sequential: 3-19                       [1, 160, 7, 7]            [1, 160, 7, 7]            320,000                   15,480,320
│    └─InvertedResidual: 2-18                      [1, 160, 7, 7]            [1, 320, 7, 7]            --                        --
│    │    └─Sequential: 3-20                       [1, 160, 7, 7]            [1, 320, 7, 7]            473,920                   23,007,040
│    └─Conv2dNormActivation: 2-19                  [1, 320, 7, 7]            [1, 1280, 7, 7]           --                        --
│    │    └─Conv2d: 3-21                           [1, 320, 7, 7]            [1, 1280, 7, 7]           409,600                   20,070,400
│    │    └─BatchNorm2d: 3-22                      [1, 1280, 7, 7]           [1, 1280, 7, 7]           2,560                     2,560
│    │    └─ReLU6: 3-23                            [1, 1280, 7, 7]           [1, 1280, 7, 7]           --                        --
├─Sequential: 1-2                                  [1, 1280]                 [1, 8]                    --                        --
│    └─Dropout: 2-20                               [1, 1280]                 [1, 1280]                 --                        --
│    └─Linear: 2-21                                [1, 1280]                 [1, 8]                    10,248                    10,248
======================================================================================================================================================
Total params: 2,234,120
Trainable params: 2,234,120
Non-trainable params: 0
Total mult-adds (Units.MEGABYTES): 299.54
======================================================================================================================================================
…
{'Tomato Early blight leaf': 0, 'Tomato Septoria leaf spot': 1, 'Tomato leaf': 2, 'Tomato leaf bacterial spot': 3, 'Tomato leaf late blight': 4, 'Tomato leaf mosaic virus': 5, 'Tomato leaf yellow virus': 6, 'Tomato mold leaf': 7}
======================================================================================================================================================
Layer (type:depth-idx)                             Input Shape               Output Shape              Param #                   Mult-Adds
======================================================================================================================================================
MobileNetV3                                        [1, 3, 224, 224]          [1, 8]                    --                        --
├─Sequential: 1-1                                  [1, 3, 224, 224]          [1, 960, 7, 7]            --                        --
│    └─Conv2dNormActivation: 2-1                   [1, 3, 224, 224]          [1, 16, 112, 112]         --                        --
│    │    └─Conv2d: 3-1                            [1, 3, 224, 224]          [1, 16, 112, 112]         432                       5,419,008
│    │    └─BatchNorm2d: 3-2                       [1, 16, 112, 112]         [1, 16, 112, 112]         32                        32
│    │    └─Hardswish: 3-3                         [1, 16, 112, 112]         [1, 16, 112, 112]         --                        --
│    └─InvertedResidual: 2-2                       [1, 16, 112, 112]         [1, 16, 112, 112]         --                        --
│    │    └─Sequential: 3-4                        [1, 16, 112, 112]         [1, 16, 112, 112]         464                       5,017,664
│    └─InvertedResidual: 2-3                       [1, 16, 112, 112]         [1, 24, 56, 56]           --                        --
│    │    └─Sequential: 3-5                        [1, 16, 112, 112]         [1, 24, 56, 56]           3,440                     19,468,592
│    └─InvertedResidual: 2-4                       [1, 24, 56, 56]           [1, 24, 56, 56]           --                        --
│    │    └─Sequential: 3-6                        [1, 24, 56, 56]           [1, 24, 56, 56]           4,440                     12,870,480
│    └─InvertedResidual: 2-5                       [1, 24, 56, 56]           [1, 40, 28, 28]           --                        --
│    │    └─Sequential: 3-7                        [1, 24, 56, 56]           [1, 40, 28, 28]           10,328                    9,092,048
│    └─InvertedResidual: 2-6                       [1, 40, 28, 28]           [1, 40, 28, 28]           --                        --
│    │    └─Sequential: 3-8                        [1, 40, 28, 28]           [1, 40, 28, 28]           20,992                    9,886,792
│    └─InvertedResidual: 2-7                       [1, 40, 28, 28]           [1, 40, 28, 28]           --                        --
│    │    └─Sequential: 3-9                        [1, 40, 28, 28]           [1, 40, 28, 28]           20,992                    9,886,792
│    └─InvertedResidual: 2-8                       [1, 40, 28, 28]           [1, 80, 14, 14]           --                        --
│    │    └─Sequential: 3-10                       [1, 40, 28, 28]           [1, 80, 14, 14]           32,080                    11,714,080
│    └─InvertedResidual: 2-9                       [1, 80, 14, 14]           [1, 80, 14, 14]           --                        --
│    │    └─Sequential: 3-11                       [1, 80, 14, 14]           [1, 80, 14, 14]           34,760                    6,625,760
│    └─InvertedResidual: 2-10                      [1, 80, 14, 14]           [1, 80, 14, 14]           --                        --
│    │    └─Sequential: 3-12                       [1, 80, 14, 14]           [1, 80, 14, 14]           31,992                    6,095,712
│    └─InvertedResidual: 2-11                      [1, 80, 14, 14]           [1, 80, 14, 14]           --                        --
│    │    └─Sequential: 3-13                       [1, 80, 14, 14]           [1, 80, 14, 14]           31,992                    6,095,712
│    └─InvertedResidual: 2-12                      [1, 80, 14, 14]           [1, 112, 14, 14]          --                        --
│    │    └─Sequential: 3-14                       [1, 80, 14, 14]           [1, 112, 14, 14]          214,424                   19,028,024
│    └─InvertedResidual: 2-13                      [1, 112, 14, 14]          [1, 112, 14, 14]          --                        --
│    │    └─Sequential: 3-15                       [1, 112, 14, 14]          [1, 112, 14, 14]          386,120                   30,918,440
│    └─InvertedResidual: 2-14                      [1, 112, 14, 14]          [1, 160, 7, 7]            --                        --
│    │    └─Sequential: 3-16                       [1, 112, 14, 14]          [1, 160, 7, 7]            429,224                   21,073,064
│    └─InvertedResidual: 2-15                      [1, 160, 7, 7]            [1, 160, 7, 7]            --                        --
│    │    └─Sequential: 3-17                       [1, 160, 7, 7]            [1, 160, 7, 7]            797,360                   16,694,960
│    └─InvertedResidual: 2-16                      [1, 160, 7, 7]            [1, 160, 7, 7]            --                        --
│    │    └─Sequential: 3-18                       [1, 160, 7, 7]            [1, 160, 7, 7]            797,360                   16,694,960
│    └─Conv2dNormActivation: 2-17                  [1, 160, 7, 7]            [1, 960, 7, 7]            --                        --
│    │    └─Conv2d: 3-19                           [1, 160, 7, 7]            [1, 960, 7, 7]            153,600                   7,526,400
│    │    └─BatchNorm2d: 3-20                      [1, 960, 7, 7]            [1, 960, 7, 7]            1,920                     1,920
│    │    └─Hardswish: 3-21                        [1, 960, 7, 7]            [1, 960, 7, 7]            --                        --
├─AdaptiveAvgPool2d: 1-2                           [1, 960, 7, 7]            [1, 960, 1, 1]            --                        --
├─Sequential: 1-3                                  [1, 960]                  [1, 8]                    --                        --
│    └─Linear: 2-18                                [1, 960]                  [1, 1280]                 1,230,080                 1,230,080
│    └─Hardswish: 2-19                             [1, 1280]                 [1, 1280]                 --                        --
│    └─Dropout: 2-20                               [1, 1280]                 [1, 1280]                 --                        --
│    └─Linear: 2-21                                [1, 1280]                 [1, 8]                    10,248                    10,248
======================================================================================================================================================
Total params: 4,212,280
Trainable params: 4,212,280
Non-trainable params: 0
Total mult-adds (Units.MEGABYTES): 215.35
======================================================================================================================================================
…
{'Tomato Early blight leaf': 0, 'Tomato Septoria leaf spot': 1, 'Tomato leaf': 2, 'Tomato leaf bacterial spot': 3, 'Tomato leaf late blight': 4, 'Tomato leaf mosaic virus': 5, 'Tomato leaf yellow virus': 6, 'Tomato mold leaf': 7}
=================================================================================================================================================
Layer (type:depth-idx)                        Input Shape               Output Shape              Param #                   Mult-Adds
=================================================================================================================================================
MobileNetV3                                   [1, 3, 224, 224]          [1, 8]                    --                        --
├─Conv2d: 1-1                                 [1, 3, 224, 224]          [1, 16, 112, 112]         432                       5,419,008
├─BatchNormAct2d: 1-2                         [1, 16, 112, 112]         [1, 16, 112, 112]         32                        --
│    └─Identity: 2-1                          [1, 16, 112, 112]         [1, 16, 112, 112]         --                        --
│    └─Hardswish: 2-2                         [1, 16, 112, 112]         [1, 16, 112, 112]         --                        --
├─Sequential: 1-3                             [1, 16, 112, 112]         [1, 576, 7, 7]            --                        --
│    └─Sequential: 2-3                        [1, 16, 112, 112]         [1, 16, 56, 56]           --                        --
│    │    └─DepthwiseSeparableConv: 3-1       [1, 16, 112, 112]         [1, 16, 56, 56]           744                       1,254,680
│    └─Sequential: 2-4                        [1, 16, 56, 56]           [1, 24, 28, 28]           --                        --
│    │    └─InvertedResidual: 3-2             [1, 16, 56, 56]           [1, 24, 28, 28]           3,864                     5,475,456
│    │    └─InvertedResidual: 3-3             [1, 24, 28, 28]           [1, 24, 28, 28]           5,416                     3,932,544
│    └─Sequential: 2-5                        [1, 24, 28, 28]           [1, 40, 14, 14]           --                        --
│    │    └─InvertedResidual: 3-4             [1, 24, 28, 28]           [1, 40, 14, 14]           13,736                    3,034,104
│    │    └─InvertedResidual: 3-5             [1, 40, 14, 14]           [1, 40, 14, 14]           57,264                    4,970,224
│    │    └─InvertedResidual: 3-6             [1, 40, 14, 14]           [1, 40, 14, 14]           57,264                    4,970,224
│    └─Sequential: 2-6                        [1, 40, 14, 14]           [1, 48, 14, 14]           --                        --
│    │    └─InvertedResidual: 3-7             [1, 40, 14, 14]           [1, 48, 14, 14]           21,968                    2,665,592
│    │    └─InvertedResidual: 3-8             [1, 48, 14, 14]           [1, 48, 14, 14]           29,800                    3,426,808
│    └─Sequential: 2-7                        [1, 48, 14, 14]           [1, 96, 7, 7]             --                        --
│    │    └─InvertedResidual: 3-9             [1, 48, 14, 14]           [1, 96, 7, 7]             91,848                    4,458,888
│    │    └─InvertedResidual: 3-10            [1, 96, 7, 7]             [1, 96, 7, 7]             294,096                   6,291,216
│    │    └─InvertedResidual: 3-11            [1, 96, 7, 7]             [1, 96, 7, 7]             294,096                   6,291,216
│    └─Sequential: 2-8                        [1, 96, 7, 7]             [1, 576, 7, 7]            --                        --
│    │    └─ConvBnAct: 3-12                   [1, 96, 7, 7]             [1, 576, 7, 7]            56,448                    2,709,504
├─SelectAdaptivePool2d: 1-4                   [1, 576, 7, 7]            [1, 576, 1, 1]            --                        --
│    └─AdaptiveAvgPool2d: 2-9                 [1, 576, 7, 7]            [1, 576, 1, 1]            --                        --
│    └─Identity: 2-10                         [1, 576, 1, 1]            [1, 576, 1, 1]            --                        --
├─Conv2d: 1-5                                 [1, 576, 1, 1]            [1, 1024, 1, 1]           590,848                   590,848
├─Identity: 1-6                               [1, 1024, 1, 1]           [1, 1024, 1, 1]           --                        --
├─Hardswish: 1-7                              [1, 1024, 1, 1]           [1, 1024, 1, 1]           --                        --
├─Flatten: 1-8                                [1, 1024, 1, 1]           [1, 1024]                 --                        --
├─Linear: 1-9                                 [1, 1024]                 [1, 8]                    8,200                     8,200
=================================================================================================================================================
Total params: 1,526,056
Trainable params: 1,526,056
Non-trainable params: 0
Total mult-adds (Units.MEGABYTES): 55.50
=================================================================================================================================================
…
{'Tomato Early blight leaf': 0, 'Tomato Septoria leaf spot': 1, 'Tomato leaf': 2, 'Tomato leaf bacterial spot': 3, 'Tomato leaf late blight': 4, 'Tomato leaf mosaic virus': 5, 'Tomato leaf yellow virus': 6, 'Tomato mold leaf': 7}
======================================================================================================================================================
Layer (type:depth-idx)                             Input Shape               Output Shape              Param #                   Mult-Adds
======================================================================================================================================================
MobileNetV3                                        [1, 3, 224, 224]          [1, 8]                    --                        --
├─Conv2d: 1-1                                      [1, 3, 224, 224]          [1, 32, 112, 112]         864                       10,838,016
├─BatchNormAct2d: 1-2                              [1, 32, 112, 112]         [1, 32, 112, 112]         64                        --
│    └─Identity: 2-1                               [1, 32, 112, 112]         [1, 32, 112, 112]         --                        --
│    └─ReLU: 2-2                                   [1, 32, 112, 112]         [1, 32, 112, 112]         --                        --
├─Sequential: 1-3                                  [1, 32, 112, 112]         [1, 480, 7, 7]            --                        --
│    └─Sequential: 2-3                             [1, 32, 112, 112]         [1, 16, 56, 56]           --                        --
│    │    └─ConvBnAct: 3-1                         [1, 32, 112, 112]         [1, 16, 56, 56]           4,640                     14,450,688
│    │    └─ConvBnAct: 3-2                         [1, 16, 56, 56]           [1, 16, 56, 56]           288                       802,816
│    └─Sequential: 2-4                             [1, 16, 56, 56]           [1, 32, 28, 28]           --                        --
│    │    └─ConvBnAct: 3-3                         [1, 16, 56, 56]           [1, 48, 28, 28]           7,008                     5,419,008
│    │    └─ConvBnAct: 3-4                         [1, 48, 28, 28]           [1, 32, 28, 28]           1,600                     1,204,224
│    └─Sequential: 2-5                             [1, 32, 28, 28]           [1, 48, 14, 14]           --                        --
│    │    └─UniversalInvertedResidual: 3-5         [1, 32, 28, 28]           [1, 48, 14, 14]           11,424                    4,409,216
│    │    └─UniversalInvertedResidual: 3-6         [1, 48, 14, 14]           [1, 48, 14, 14]           10,560                    1,975,680
│    │    └─UniversalInvertedResidual: 3-7         [1, 48, 14, 14]           [1, 48, 14, 14]           10,560                    1,975,680
│    │    └─UniversalInvertedResidual: 3-8         [1, 48, 14, 14]           [1, 48, 14, 14]           10,560                    1,975,680
│    │    └─UniversalInvertedResidual: 3-9         [1, 48, 14, 14]           [1, 48, 14, 14]           10,560                    1,975,680
│    │    └─UniversalInvertedResidual: 3-10        [1, 48, 14, 14]           [1, 48, 14, 14]           19,440                    3,697,344
│    └─Sequential: 2-6                             [1, 48, 14, 14]           [1, 64, 7, 7]             --                        --
│    │    └─UniversalInvertedResidual: 3-11        [1, 48, 14, 14]           [1, 64, 7, 7]             36,656                    3,824,352
│    │    └─UniversalInvertedResidual: 3-12        [1, 64, 7, 7]             [1, 64, 7, 7]             42,048                    1,997,632
│    │    └─UniversalInvertedResidual: 3-13        [1, 64, 7, 7]             [1, 64, 7, 7]             40,320                    1,919,232
│    │    └─UniversalInvertedResidual: 3-14        [1, 64, 7, 7]             [1, 64, 7, 7]             30,272                    1,439,424
│    │    └─UniversalInvertedResidual: 3-15        [1, 64, 7, 7]             [1, 64, 7, 7]             36,224                    1,718,528
│    │    └─UniversalInvertedResidual: 3-16        [1, 64, 7, 7]             [1, 64, 7, 7]             36,224                    1,718,528
│    └─Sequential: 2-7                             [1, 64, 7, 7]             [1, 480, 7, 7]            --                        --
│    │    └─ConvBnAct: 3-17                        [1, 64, 7, 7]             [1, 480, 7, 7]            31,680                    1,505,280
├─SelectAdaptivePool2d: 1-4                        [1, 480, 7, 7]            [1, 480, 1, 1]            --                        --
│    └─AdaptiveAvgPool2d: 2-8                      [1, 480, 7, 7]            [1, 480, 1, 1]            --                        --
│    └─Identity: 2-9                               [1, 480, 1, 1]            [1, 480, 1, 1]            --                        --
├─Conv2d: 1-5                                      [1, 480, 1, 1]            [1, 1280, 1, 1]           614,400                   614,400
├─BatchNormAct2d: 1-6                              [1, 1280, 1, 1]           [1, 1280, 1, 1]           2,560                     --
│    └─Identity: 2-10                              [1, 1280, 1, 1]           [1, 1280, 1, 1]           --                        --
│    └─ReLU: 2-11                                  [1, 1280, 1, 1]           [1, 1280, 1, 1]           --                        --
├─Identity: 1-7                                    [1, 1280, 1, 1]           [1, 1280, 1, 1]           --                        --
├─Flatten: 1-8                                     [1, 1280, 1, 1]           [1, 1280]                 --                        --
├─Linear: 1-9                                      [1, 1280]                 [1, 8]                    10,248                    10,248
======================================================================================================================================================
Total params: 968,200
Trainable params: 968,200
Non-trainable params: 0
Total mult-adds (Units.MEGABYTES): 63.47
======================================================================================================================================================
…
