…
    Minimum and Maximum cuda capability supported by this version of PyTorch is
    (8.0) - (12.0)
    
  warnings.warn(
=================================================================================================================================================
Layer (type:depth-idx)                        Input Shape               Output Shape              Param #                   Mult-Adds
=================================================================================================================================================
MobileNetV3                                   [1, 3, 224, 224]          [1, 8]                    --                        --
├─Conv2d: 1-1                                 [1, 3, 224, 224]          [1, 16, 112, 112]         432                       5,419,008
├─BatchNormAct2d: 1-2                         [1, 16, 112, 112]         [1, 16, 112, 112]         32                        --
│    └─Identity: 2-1                          [1, 16, 112, 112]         [1, 16, 112, 112]         --                        --
│    └─Hardswish: 2-2                         [1, 16, 112, 112]         [1, 16, 112, 112]         --                        --
├─Sequential: 1-3                             [1, 16, 112, 112]         [1, 576, 7, 7]            --                        --
│    └─Sequential: 2-3                        [1, 16, 112, 112]         [1, 16, 56, 56]           --                        --
│    │    └─DepthwiseSeparableConv: 3-1       [1, 16, 112, 112]         [1, 16, 56, 56]           744                       1,254,680
│    └─Sequential: 2-4                        [1, 16, 56, 56]           [1, 24, 28, 28]           --                        --
│    │    └─InvertedResidual: 3-2             [1, 16, 56, 56]           [1, 24, 28, 28]           3,864                     5,475,456
│    │    └─InvertedResidual: 3-3             [1, 24, 28, 28]           [1, 24, 28, 28]           5,416                     3,932,544
│    └─Sequential: 2-5                        [1, 24, 28, 28]           [1, 40, 14, 14]           --                        --
│    │    └─InvertedResidual: 3-4             [1, 24, 28, 28]           [1, 40, 14, 14]           13,736                    3,034,104
│    │    └─InvertedResidual: 3-5             [1, 40, 14, 14]           [1, 40, 14, 14]           57,264                    4,970,224
│    │    └─InvertedResidual: 3-6             [1, 40, 14, 14]           [1, 40, 14, 14]           57,264                    4,970,224
│    └─Sequential: 2-6                        [1, 40, 14, 14]           [1, 48, 14, 14]           --                        --
│    │    └─InvertedResidual: 3-7             [1, 40, 14, 14]           [1, 48, 14, 14]           21,968                    2,665,592
│    │    └─InvertedResidual: 3-8             [1, 48, 14, 14]           [1, 48, 14, 14]           29,800                    3,426,808
│    └─Sequential: 2-7                        [1, 48, 14, 14]           [1, 96, 7, 7]             --                        --
│    │    └─InvertedResidual: 3-9             [1, 48, 14, 14]           [1, 96, 7, 7]             91,848                    4,458,888
│    │    └─InvertedResidual: 3-10            [1, 96, 7, 7]             [1, 96, 7, 7]             294,096                   6,291,216
│    │    └─InvertedResidual: 3-11            [1, 96, 7, 7]             [1, 96, 7, 7]             294,096                   6,291,216
│    └─Sequential: 2-8                        [1, 96, 7, 7]             [1, 576, 7, 7]            --                        --
│    │    └─ConvBnAct: 3-12                   [1, 96, 7, 7]             [1, 576, 7, 7]            56,448                    2,709,504
├─SelectAdaptivePool2d: 1-4                   [1, 576, 7, 7]            [1, 576, 1, 1]            --                        --
│    └─AdaptiveAvgPool2d: 2-9                 [1, 576, 7, 7]            [1, 576, 1, 1]            --                        --
│    └─Identity: 2-10                         [1, 576, 1, 1]            [1, 576, 1, 1]            --                        --
├─Conv2d: 1-5                                 [1, 576, 1, 1]            [1, 1024, 1, 1]           590,848                   590,848
├─Identity: 1-6                               [1, 1024, 1, 1]           [1, 1024, 1, 1]           --                        --
├─Hardswish: 1-7                              [1, 1024, 1, 1]           [1, 1024, 1, 1]           --                        --
├─Flatten: 1-8                                [1, 1024, 1, 1]           [1, 1024]                 --                        --
├─Linear: 1-9                                 [1, 1024]                 [1, 8]                    8,200                     8,200
=================================================================================================================================================
Total params: 1,526,056
Trainable params: 1,526,056
Non-trainable params: 0
Total mult-adds (Units.MEGABYTES): 55.50
=================================================================================================================================================
…
